Tinker_sber_RL/model_jitt.pt (torch, 948173 bytes, 34 tensors)

weight f2 [512, 195]
0.01775 0.05496 0.0742 -0.0064 0.02017 -0.03458 0.01862 -0.004433
0.05777 0.04916 0.02841 0.04813 0.01199 0.02258 0.03958 0.03778
-0.04144 -0.01912 0.12146 0.007404 -0.01381 -0.03372 0.00924 0.00849
0.02292 -0.01026 -0.0485 -0.1123 -0.02148 -0.04205 -0.03021 0.04822
0.05215 -0.00942 -0.07385 0.05533 -0.03543 0.05948 -0.009384 -0.08417
0.08844 0.00225 -0.0362 0.1677 -0.04944 -0.02173 -0.0308 -0.0551
-0.05756 -0.013084 0.01021 -0.04306 0.0551 -0.0371 0.04965 -0.000613
0.01229 -0.01371 0.05014 -0.01073 -0.02669 -0.0203 -0.03903 0.013466
-0.05322 0.08887 -0.02022 -0.0574 -0.0948 -0.0526 0.01086 -0.004593
-0.0208 0.01037 -0.04224 -0.05273 -0.03012 -0.0373 -0.02289 0.09204
-0.05402 -0.02676 0.1139 -0.015205 -0.01085 -0.0094 0.0551 0.01813
0.05984 0.04547 0.01512 0.005695 -0.003819 0.09436 -0.1057 0.00963
0.03342 0.03934 0.02481 0.05676 0.0898 -0.0661 -0.0461 0.03845
-0.003658 0.02696 0.0531 0.0708 0.03152 0.01636 0.05447 -0.02396
-0.05893 -0.06125 0.0717 -0.03757 -0.01131 0.04596 -0.006874 0.04916
-0.06244 0.2139 0.05954 0.05225 0.05618 -0.003086 -0.0197 0.0752
0.03656 0.01404 -0.02054 0.01686 -0.01451 -0.1027 -0.05923 -0.0267
-0.02715 0.0681 -0.02385 0.1029 0.02342 -0.05167 -0.05597 0.02948
0.03543 0.05807 0.04782 0.05472 -0.05106 0.0644 0.03586 -0.04398
0.00457 0.02376 -0.05054 -0.04077 -0.02475 0.136 0.0532 -0.0646
0.2389 0.07556 0.01085 -0.0751 0.01534 0.05096 0.0115 -0.02554
0.003008 -0.03113 0.01371 0.0896 0.05002 -0.01782 -0.09546 0.01174
-0.1393 -0.01209 -0.0932 0.028 0.04666 -0.02606 0.05313 0.0555
-0.06158 -0.001512 0.079 0.0265 -0.07635 -0.0812 -0.004383 0.04205
0.00891 -0.007294 -0.0755 -0.02689 0.04633 -0.03378 -0.03726 0.0674
0.05246 0.0288 -0.02127 0.06793 -0.02802 0.1174 -0.00634 0.05112
-0.01471 -0.08984 0.0977 -0.02489 -0.01779 -0.0816 -0.0474 0.04337
0.07336 -0.09674 -0.04422 0.007397 0.01825 0.0622 -0.1182 0.0755
-0.012794 -0.0859 0.0882 0.0202 0.04352 -0.01393 0.02315 -0.03964
0.005863 0.06143 -0.0975 0.02371 -0.00606 -0.174 0.0109 0.05222
-0.0389 -0.0591 -0.05106 0.0803 0.05936 -0.01205 -0.082 -0.04492
-0.0845 0.1013 -0.0463 0.01588 -0.03253 0.03552 -0.03378 0.006985
00000000: 8b24 092b c02c 8e9e 2a25 6da8 c424 8a9c
00000010: 652b 4b2a 4627 292a 2422 c825 1129 d628
00000020: 4ea9 e5a4 c62f 951f 12a3 51a8 bb20 5920
00000030: de25 41a1 35aa 30af 80a5 62a9 bca7 2c2a
00000040: ad2a d3a0 baac 152b 89a8 9d2b cea0 63ad
00000050: a92d 9c18 a2a8 5e31 54aa 90a5 e3a7 0eab
00000060: 5eab b3a2 3a21 83a9 0e2b c0a8 5b2a 0691
00000070: 4b22 05a3 6b2a 7ea1 d5a6 32a5 ffa8 e522
00000080: d0aa b02d 2da5 59ab 11ae bcaa 8f21 b49c
00000090: 53a5 4f21 68a9 c0aa b6a7 c6a8 dca5 e42d
000000a0: eaaa daa6 4a2f c9a3 8ea1 d0a0 0e2b a424
000000b0: a92b d229 be23 d51d d29b 0a2e c4ae ee20
000000c0: 4728 0929 5a26 442b bf2d 3bac e7a9 ec28
000000d0: 7e9b e726 cc2a 882c 0928 3024 f92a 22a6
000000e0: 8bab d7ab 972c cfa8 caa1 e229 0a9f 4b2a
000000f0: feab d832 9f2b b02a 312b 529a 0ba5 d02c
00000100: ae28 3023 42a5 5124 6ea3 93ae 95ab d6a6
00000110: f3a6 5c2c 1ba6 962e ff25 9daa 2aab 8c27
00000120: 8928 6f2b 1f2a 012b 89aa 1f2c 9728 a1a9
00000130: ae1c 1526 78aa 38a9 56a6 5a30 cf2a 22ac
00000140: a533 d62c 8e21 ceac db23 862a e321 8aa6
00000150: 291a f8a7 0523 bc2d 672a 90a4 1cae 0322
00000160: 75b0 31a2 f7ad 2b27 f929 aca6 cd2a 1b2b
00000170: e2ab 3196 0e2d c926 e3ac 32ad 7d9c 6229
00000180: 9020 789f d5ac e2a6 ee29 53a8 c5a8 502c
00000190: b72a 5f27 72a5 592c 2ca7 832f 7e9e 8b2a
000001a0: 88a3 c0ad 412e 5fa6 8ea4 39ad 11aa 8d29
000001b0: b22c 31ae a9a9 931f ac24 f62b 91af d52c
000001c0: 8da2 7fad a52d 2c25 9229 22a3 ed25 13a9
000001d0: 011e dd2b 3dae 1226 359e 91b1 9521 af2a
000001e0: fba8 91ab 89aa 242d 992b 2ba2 3fad c0a9
000001f0: 68ad 7c2e eda9 1124 2aa8 8c28 53a8 271f

bias f2 [512]
-0.01556 -0.0493 -0.01595 0.00996 0.04166 0.01584 -0.05087 -0.03055
0.0487 -0.08624 0.00776 0.03305 -0.04477 -0.03098 0.1032 0.0742
0.05304 0.0667 0.01945 -0.01384 0.05685 0.06555 -0.01287 -0.05246
-0.0628 -0.004223 0.0155 -0.02345 -0.02768 0.00316 0.015045 0.01974
-0.03394 0.01087 0.01548 0.004196 0.04742 0.0845 0.01704 0.013824
-0.01967 -0.02092 -0.05734 0.01185 0.05786 -0.05478 -0.00204 0.0827
0.03674 0.07196 0.07446 0.05713 0.03543 -0.0359 -0.01947 0.01686
0.04398 0.003319 0.02115 -0.02634 0.06506 0.05698 0.014694 0.002241
-0.03613 0.02866 0.05502 -0.06946 -0.01584 -0.0822 0.0916 -0.01181
0.02438 0.05194 0.01477 0.04803 0.048 0.03445 -0.014114 -0.02574
-0.0484 0.05972 -0.0275 -0.02058 0.07495 -0.05338 -0.0809 0.0845
-0.02225 0.03394 0.04642 0.0003266 -0.009384 0.05426 -0.01484 -0.03084
-0.04355 -0.06396 0.005817 0.014404 0.006104 -0.0287 -0.05096 0.01935
0.00596 0.03023 0.0083 0.01648 -0.02666 0.0316 0.0755 -0.02419
-0.05426 0.03546 0.05768 -0.0851 0.001461 0.05258 0.005016 -0.0843
0.03065 -0.06915 -0.02441 -0.02383 0.02786 0.02972 -0.00661 0.002993
0.0565 0.1 -0.02266 0.004974 -0.0406 -0.01172 0.04156 -0.02162
-0.02063 0.0652 -0.00785 -0.057 0.005447 0.05875 0.03534 0.05328
-0.04727 0.02278 -0.02213 -0.03012 -0.02298 -0.0397 0.02022 0.05783
-0.02734 0.0832 -0.0348 0.004185 -0.0329 -0.01642 0.03848 0.007572
-0.03833 -0.05707 0.04263 -0.0343 -0.04858 0.02016 0.02534 0.0924
-0.02303 -0.011635 -0.07715 -0.02638 0.02402 0.0442 0.01897 0.1049
0.0796 0.0418 -0.04947 0.01341 -0.08093 -0.0073 -0.00678 -0.04688
0.0712 -0.0667 0.02231 0.01831 0.0825 0.04782 -0.03098 0.03873
-0.03384 -0.03616 -0.084 -0.0322 0.0723 0.087 0.0696 0.02412
0.04077 0.01077 0.02446 0.0235 -0.02821 -0.01129 -0.04816 0.01878
0.0928 -0.0581 0.05472 -0.03415 -0.0659 0.07886 0.01955 -0.0724
-0.02823 0.05673 0.0413 -0.034 -0.03894 -0.05762 -0.0394 -0.07245
0.01701 0.03897 -0.0157 0.0357 -0.0436 0.06354 -0.04123 0.03195
0.04834 0.04266 0.005833 -0.06305 0.02853 0.06647 0.02757 -0.0854
0.04962 -0.00718 -0.06015 0.0372 -0.01197 0.06274 0.03802 -0.05548
0.05 -0.002712 -0.01507 -0.03348 -0.0007725 -0.010544 0.06995 -0.02765
00000000: f7a3 4faa 15a4 1921 5529 0e24 83aa d2a7
00000010: 3c2a 85ad f21f 3b28 bba9 eea7 9b2e c02c
00000020: ca2a 452c fb24 16a3 472b 322c 97a2 b7aa
00000030: 05ac 539c f023 01a6 16a7 791a b423 0e25
00000040: 58a8 9121 ed23 4c1c 122a 682d 5d24 1423
00000050: 09a5 5ba5 57ab 1122 682b 03ab 2e98 4b2d
00000060: b428 9b2c c42c 502b 8928 98a8 fca4 5124
00000070: a129 cc1a 6a25 bea6 2a2c 4b2b 8623 9718
00000080: a0a8 5627 0b2b 72ac 0ea4 43ad dd2d 0ca2
00000090: 3e26 a62a 9023 262a 252a 6928 3aa3 97a6
000000a0: 32aa a52b 0aa7 45a5 cc2c d5aa 2dad 682d
000000b0: b2a5 5828 f129 5a0d cea0 f22a 99a3 e5a7
000000c0: 93a9 18ac f51d 6023 401e 59a7 86aa f424
000000d0: 1a1e bd27 4020 3824 d3a6 0b28 d52c 31a6
000000e0: f2aa 8a28 622b 72ad fc15 bb2a 231d 65ad
000000f0: d927 6dac 40a6 1aa6 2227 9c27 c59e 211a
00000100: 3b2b 662e cda5 181d 32a9 00a2 5229 89a5
00000110: 48a5 2c2c 05a0 4cab 941d 852b 8628 d22a
00000120: 0daa d525 aaa5 b6a7 e2a5 15a9 2d25 672b
00000130: 00a7 532d 74a8 491c 36a8 34a4 ed28 c11f
00000140: e8a8 4eab 7529 64a8 38aa 2925 7d26 ea2d
00000150: e5a5 f5a1 f0ac c1a6 2626 a829 db24 b72e
00000160: 182d 5a29 55aa de22 2ead 7a9f f19e 00aa
00000170: 8f2c 45ac b625 b024 482d 1f2a eea7 f528
00000180: 55a8 a1a8 60ad 1fa8 a12c 912d 742c 2d26
00000190: 3829 8421 4326 0426 39a7 c8a1 2aaa cf24
000001a0: f02d 70ab 012b 5fa8 38ac 0c2d 0125 a2ac
000001b0: 3aa7 432b 4929 5aa8 fca8 60ab 0ba9 a3ac
000001c0: 5b24 fd28 05a4 9228 95a9 112c 47a9 1728
000001d0: 302a 7629 f91d 09ac 4e27 412c 0f27 77ad
000001e0: 5a2a 5a9f b3ab c328 21a2 042c de28 1aab
000001f0: 662a 8e99 b7a3 49a8 5492 66a1 7a2c 14a7

weight f2 [256, 512]
0.02281 -0.00136 0.08026 -0.04407 0.06256 -0.02473 -0.02618 -0.0718
-0.03683 0.0392 -0.03275 0.0497 -0.02652 0.01686 -0.02592 0.04007
-0.05136 0.0348 -0.05914 0.04852 -0.0384 0.00908 0.015366 0.05798
0.03214 0.03403 -0.0178 -0.02216 -0.003132 -0.0477 0.03287 0.0422
-0.0496 -0.03275 -0.0659 0.01406 -0.03763 0.03592 -0.0529 0.00973
-0.01021 0.03406 -0.0528 -0.0272 0.01929 -0.08923 -0.000741 0.0978
-0.02911 -0.00689 0.0003846 0.0674 0.01799 0.02869 0.0555 -0.03824
-0.0363 -0.04718 -0.0647 0.03026 0.00247 -0.07837 -0.00372 0.01425
0.02643 -0.00724 -0.0749 -0.01596 0.0599 -0.02417 -0.05344 -0.05228
0.05197 0.05652 -0.04755 -0.03503 -0.003849 -0.01997 0.01973 0.03558
0.0265 0.05118 -0.02515 0.01965 -0.01613 -0.04642 0.02959 0.02878
-0.01839 0.07904 -0.01289 0.01843 -0.0702 -0.01096 0.03833 0.0011
-0.02042 0.009766 -0.00587 0.001173 0.08 0.04373 -0.0006614 0.014755
0.08417 0.005844 0.02455 0.05106 0.03293 0.01929 -0.04996 0.0582
-0.01797 -0.004665 -0.03937 0.033 0.01982 0.001652 0.007755 0.003021
0.004192 -0.0001351 -0.02531 0.0192 -0.02603 0.00675 0.0317 0.0535
0.0471 0.03177 -0.05585 0.00904 -0.02475 0.000988 -0.02821 0.0398
0.00835 -0.0405 0.01327 0.0586 -0.0394 0.014145 0.0543 -0.01163
0.005165 -0.03041 0.0588 0.05078 -0.010925 0.07007 0.0626 0.04425
0.01392 0.01147 0.02332 0.0317 0.0408 0.02422 0.010925 0.04922
0.0005574 -0.04196 0.02489 0.06305 0.063 0.001957 0.04678 -0.04086
-0.02066 -0.0634 0.02324 0.01897 -0.03656 0.02853 0.03668 0.01793
-0.03622 0.04816 0.0706 0.06824 -0.01758 -0.0308 -0.001406 -0.002737
0.02815 0.00617 0.05518 0.0489 -0.02634 0.01749 0.00875 -0.054
0.00839 0.0651 0.012665 0.01683 0.02237 0.05692 0.0223 0.0251
0.01276 0.03806 0.00781 -0.03482 -0.00938 -0.0385 -0.0188 -0.02
0.01936 -0.01199 0.03516 -0.0719 0.08 0.01898 0.0151 -0.03452
-0.049 -0.02449 -0.00313 -0.04984 0.02858 -0.009285 -0.01232 0.00362
-0.06226 0.01393 -0.006386 -0.014984 -0.03833 -0.0128 0.01686 -0.04318
-0.04425 0.01976 0.04562 -0.01122 -0.00275 0.02686 0.0385 0.0364
-0.02441 0.02855 0.04514 -0.03424 -0.03674 -0.02544 0.03262 -0.05557
-0.05362 0.04752 0.003424 0.02913 -0.0353 -0.003752 -0.03543 0.03123
00000000: d725 9295 232d a4a9 012c 55a6 b4a6 98ac
00000010: b7a8 0529 31a8 5d2a caa6 5124 a3a6 2129
00000020: 93aa 7428 92ab 362a eaa8 a620 de23 6c2b
00000030: 1d28 5b28 8fa4 aca5 6a9a 1baa 3528 6729
00000040: 59aa 31a8 38ac 3323 d1a8 9928 c5aa fb20
00000050: 3aa1 5c28 c2aa f7a6 f024 b6ad 1292 422e
00000060: 74a7 0e9f 4d0e 502c 9b24 5827 1b2b e5a8
00000070: a5a8 0aaa 24ac bf27 0f19 04ad 9e9b 4c23
00000080: c426 6a9f cbac 16a4 ab2b 30a6 d7aa b1aa
00000090: a72a 3c2b 16aa 7ca8 e29b 1da5 0d25 8e28
000000a0: c926 8d2a 70a6 0825 21a4 f1a9 9327 5e27
000000b0: b5a4 0f2d 9aa2 b824 7eac 9da1 e828 8114
000000c0: 3aa5 0021 039e ce14 1f2d 9929 6b91 8e23
000000d0: 632d fc1d 4926 892a 3728 f024 65aa 732b
000000e0: 9aa4 c79c 0aa9 3928 1325 c416 f11f 301a
000000f0: 4b1c 6d88 7ba6 ea24 aaa6 e91e 0f28 d92a
00000100: 072a 1128 26ab a120 56a6 0c14 39a7 1829
00000110: 4620 2fa9 cb22 802b 0ba9 3e23 f32a f4a1
00000120: 4a1d c9a7 872b 802a 98a1 7c2c 022c aa29
00000130: 2123 df21 f825 0f28 3929 3326 9821 4d2a
00000140: 9110 5fa9 5f26 092c 082c 0218 fd29 3ba9
00000150: 4aa5 0fac f325 db24 aea8 4e27 b228 9724
00000160: a3a8 2a2a 852c 5e2c 80a4 e3a7 c295 9b99
00000170: 3527 511e 102b 422a bea6 7a24 7b20 e9aa
00000180: 4c20 2b2c 7c22 4f24 ba25 492b b525 6d26
00000190: 8822 df28 ff1f 75a8 cda0 eea8 d0a4 1fa5
000001a0: f524 24a2 8028 9aac 1f2d dc24 bb23 6ba8
000001b0: 46aa 45a6 699a 61aa 5127 c1a0 4fa2 6a1b
000001c0: f8ab 2223 8a9e aca3 e8a8 8ea2 5124 87a9
000001d0: aaa9 0f25 d729 bfa1 a299 e026 ee28 a928
000001e0: 40a6 4f27 c729 62a8 b4a8 83a6 2d28 1dab
000001f0: ddaa 152a 031b 7527 85a8 af9b 89a8 ff27

bias f2 [256]
0.00506 -0.03253 -0.02496 0.005047 -0.0667 -0.0696 0.005013 -0.00491
-0.03497 0.02881 0.02028 -0.05533 0.01264 0.000661 0.0183 0.004345
-0.0478 0.05334 0.05005 0.0073 -0.0163 -0.013176 0.004593 -0.0451
-0.00454 -0.02045 -0.02017 0.05453 -0.02298 0.01104 0.014404 0.01476
-0.08685 -0.0094 0.04526 0.00713 -0.02718 0.01712 -0.0266 0.03842
0.038 0.01994 0.0363 -0.02061 -0.0847 -0.03543 -0.04773 -0.0452
-0.06235 0.02309 0.02415 0.002573 -0.05154 0.00181 -0.024 -0.0758
-0.039 0.04538 -0.00283 0.05212 -0.0107 0.01457 -0.04782 -0.08
0.02565 -0.06744 0.001851 0.07385 -0.04562 0.01305 -0.03017 -0.008224
0.01677 0.02719 0.01527 -0.012115 0.01444 0.04843 -0.0249 0.00196
-0.007595 0.02751 -0.01248 0.002468 0.001935 0.01782 -0.0689 -0.003983
0.02197 0.023 -0.0201 -0.01935 -0.01607 -0.02051 -0.04507 0.04645
0.01755 -0.03072 0.05862 0.003714 0.0576 0.02908 -0.03882 -0.029
-0.01947 -0.02002 -0.0008225 0.01636 0.0353 0.00442 0.04437 -0.001122
0.04266 -0.0466 0.02547 -0.0631 -0.010254 -0.0651 0.0013075 -0.02779
0.05853 -0.009895 0.04214 0.062 0.0233 0.04 -0.02365 0.0357
0.01038 -0.02762 -0.0004463 -0.0468 0.02034 0.00915 0.03223 -0.02718
0.0348 0.04984 0.00537 0.00764 0.00738 0.007042 -0.00866 0.014244
0.0724 -0.007072 -0.00944 0.000303 -0.02184 0.01831 0.007175 -0.02615
-0.04114 0.003122 -0.0048 0.01958 -0.006474 0.01569 0.0084 0.03662
-0.03238 -0.01935 0.02664 -0.04468 0.0648 0.01836 -0.01994 0.005775
-0.03613 -0.00997 -0.02184 -0.00708 0.00335 0.00818 0.001709 -0.02669
-0.02928 -0.02254 0.02516 0.01685 0.02765 0.06384 -0.05695 0.0339
0.01953 0.013985 0.03024 0.01502 0.00285 0.00785 0.0688 -0.0437
-0.02737 -0.0328 -0.0465 -0.01002 0.0203 -0.0605 -0.02867 -0.02483
0.02264 -0.003128 0.02623 0.0163 0.02933 0.0225 0.03123 -0.02313
-0.007553 0.002947 -0.00751 0.05627 -0.03014 -0.01845 -0.006813 0.01317
0.02362 -0.01768 -0.006283 -0.066 0.06396 0.03278 -0.01418 0.04892
-0.0381 -0.03366 -0.0739 0.05826 -0.03244 0.0017605 0.00332 0.04578
-0.02861 -0.01093 0.05322 -0.05396 0.04382 -0.012184 -0.00862 -0.0375
-0.05124 -0.04977 0.03638 0.01045 -0.06885 0.04965 -0.001482 0.02075
-0.01464 0.0671 -0.01863 0.007217 0.0175 -0.004562 -0.03093 -0.006966
00000000: 2e1d 2aa8 64a6 2b1d 45ac 74ac 221d 079d
00000010: 7aa8 6027 3125 15ab 7922 6a11 af24 731c
00000020: 1eaa d42a 682a 7a1f 2ca4 bfa2 b41c c6a9
00000030: a69c 3ca5 2aa5 fb2a e2a5 a721 6023 8f23
00000040: 8fad d0a0 cb29 4d1f f5a6 6224 cfa6 eb28
00000050: dd28 1b25 a528 47a5 6cad 89a8 1caa c9a9
00000060: fbab e925 2f26 4519 99aa 6a17 25a6 daac
00000070: fea8 cf29 cc99 ac2a 7aa1 7623 1faa 1fad
00000080: 9126 51ac 9517 ba2c d7a9 ae22 b9a7 36a0
00000090: 4b24 f626 d123 34a2 6523 332a 60a6 0418
000000a0: c79f 0b27 64a2 0e19 ed17 9024 69ac 149c
000000b0: a025 e325 25a5 f4a4 1da4 40a5 c5a9 f229
000000c0: 7e24 dda7 812b 9b1b 5f2b 7227 f8a8 6da7
000000d0: fca4 20a5 bd92 3024 8528 871c ae29 9994
000000e0: 7629 f7a9 8526 0aac 40a1 2bac 5b15 1da7
000000f0: 7e2b 11a1 6529 f02b f725 1f29 0ea6 9228
00000100: 5121 12a7 508f fea9 3525 af20 2028 f5a6
00000110: 7428 612a 801d d31f 8f1f 361f 6fa0 4b23
00000120: a22c 3e9f d5a0 f70c 97a5 b024 591f b2a6
00000130: 44a9 651a ea9c 0325 a19e 0424 4d20 b028
00000140: 25a8 f4a4 d226 b8a9 262c b324 1ba5 ea1d
00000150: a0a8 1ba1 97a5 409f dc1a 3020 0017 d5a6
00000160: 7fa7 c5a5 7126 5024 1427 162c 4aab 5728
00000170: 0025 2923 be27 b123 d619 0520 672c 98a9
00000180: 02a7 33a8 f4a9 21a1 3225 beab 57a7 5ba6
00000190: cc25 689a b726 2c24 8227 c325 ff27 eca5
000001a0: bc9f 091a b19f 342b b7a7 b9a4 fa9e be22
000001b0: 0c26 87a4 6f9e 39ac 182c 3228 43a3 432a
000001c0: e0a8 4fa8 bbac 752b 27a8 3617 cd1a dc29
000001d0: 53a7 99a1 d02a e8aa 9c29 3da2 6aa0 cda8
000001e0: 8faa 5faa a828 5a21 68ac 5b2a 1296 5025
000001f0: 7fa3 4b2c c5a4 641f 7b24 ac9c eba7 229f

weight f2 [256]
1.006 0.983 0.986 1.046 0.9995 0.998 1.013 1.0
0.9717 1.015 0.996 1.018 0.972 1.019 1.006 1.035
1.041 1.023 1.028 0.9673 1.003 0.982 1.017 0.998
1.019 1.034 0.996 1.03 1.0 1.017 1.007 1.032
1.032 0.991 1.03 1.006 1.029 0.9937 1.021 0.987
1.01 1.039 0.994 0.99 1.011 1.005 0.997 0.99
0.989 1.021 1.032 1.003 1.053 1.027 1.044 0.969
1.018 1.017 0.9927 1.022 1.015 0.987 1.017 1.021
1.002 0.9883 0.984 1.025 1.006 0.995 1.011 0.9907
1.021 0.9854 0.993 1.038 0.99 1.011 1.018 0.9985
1.032 1.041 1.059 0.9917 0.993 1.033 0.9946 1.03
0.9834 1.003 1.012 0.985 0.999 1.008 1.018 1.0205
1.033 1.015 1.05 1.0 1.026 1.0205 1.015 0.9966
0.972 1.049 1.036 1.0205 1.0205 0.991 1.027 0.9976
1.018 0.997 1.024 1.019 1.003 1.007 1.027 0.972
1.0205 0.983 1.0 0.9976 1.024 0.99 1.009 1.002
1.004 0.9707 1.017 1.036 1.036 0.997 1.017 1.015
0.9814 1.038 1.01 1.06 1.014 1.008 0.986 1.035
1.006 1.018 0.9976 1.04 0.978 0.9746 1.005 0.995
1.01 1.031 1.03 1.021 1.013 1.01 0.984 1.007
1.018 1.003 1.021 1.01 1.022 0.9946 1.037 1.058
1.02 1.069 1.004 1.02 0.9985 0.9995 1.013 0.9717
1.0205 1.002 1.036 1.012 0.985 1.01 1.0205 0.9854
1.044 1.011 0.975 0.988 1.039 0.981 1.023 1.018
0.9976 1.003 0.986 1.008 1.014 1.037 1.026 0.992
1.019 0.9985 1.009 1.004 0.973 1.025 0.9995 0.9727
1.015 1.023 0.9927 0.9976 1.002 0.9995 0.9746 1.024
1.023 0.958 0.9995 0.979 0.9883 1.008 1.002 1.053
1.007 1.0205 1.041 1.0205 1.053 1.042 1.018 1.026
1.013 1.008 1.002 1.009 1.037 0.9873 1.0 1.009
1.026 1.032 1.015 1.022 1.049 1.007 1.043 1.001
1.003 1.042 1.004 0.983 1.01 1.05 1.032 0.996
00000000: 063c dd3b e33b 2f3c ff3b fc3b 0d3c 003c
00000010: c63b 0f3c f83b 123c c73b 133c 063c 243c
00000020: 2a3c 183c 1d3c bd3b 033c db3b 113c fc3b
00000030: 133c 233c f83b 1f3c 003c 113c 073c 213c
00000040: 213c ee3b 1f3c 063c 1e3c f33b 163c e53b
00000050: 0a3c 283c f43b ec3b 0b3c 053c fa3b ec3b
00000060: e93b 163c 213c 033c 363c 1c3c 2d3c c13b
00000070: 123c 113c f13b 173c 0f3c e53b 113c 163c
00000080: 023c e83b df3b 1a3c 063c f63b 0b3c ed3b
00000090: 163c e23b f23b 273c ec3b 0b3c 123c fd3b
000000a0: 213c 2a3c 3c3c ef3b f23b 223c f53b 1f3c
000000b0: de3b 033c 0c3c e13b fe3b 083c 123c 153c
000000c0: 223c 0f3c 333c 003c 1b3c 153c 0f3c f93b
000000d0: c73b 323c 253c 153c 153c ee3b 1c3c fb3b
000000e0: 123c fa3b 193c 133c 033c 073c 1c3c c73b
000000f0: 153c dd3b 003c fb3b 193c ec3b 093c 023c
00000100: 043c c43b 113c 253c 253c fa3b 113c 0f3c
00000110: da3b 273c 0a3c 3d3c 0e3c 083c e33b 243c
00000120: 063c 123c fb3b 293c d33b cc3b 053c f63b
00000130: 0a3c 203c 1f3c 163c 0d3c 0a3c df3b 073c
00000140: 123c 033c 163c 0a3c 173c f53b 263c 3b3c
00000150: 143c 473c 043c 143c fd3b ff3b 0d3c c63b
00000160: 153c 023c 253c 0c3c e13b 0a3c 153c e23b
00000170: 2d3c 0b3c cd3b e73b 283c d93b 183c 123c
00000180: fb3b 033c e33b 083c 0e3c 263c 1b3c f03b
00000190: 133c fd3b 093c 043c c93b 1a3c ff3b c83b
000001a0: 0f3c 183c f13b fb3b 023c ff3b cc3b 193c
000001b0: 183c aa3b ff3b d53b e83b 083c 023c 363c
000001c0: 073c 153c 2a3c 153c 363c 2b3c 123c 1b3c
000001d0: 0d3c 083c 023c 093c 263c e63b 003c 093c
000001e0: 1b3c 213c 0f3c 173c 323c 073c 2c3c 013c
000001f0: 033c 2b3c 043c dd3b 0a3c 333c 213c f83b

bias f2 [256]
0.01791 0.01012 0.006527 -0.0193 -0.03665 -0.02417 0.0096 -0.00885
0.02528 0.01633 -0.007004 -0.01668 0.0016 -0.0126 -0.003426 0.004593
-0.0307 0.006596 -0.00496 0.004894 0.01002 0.001198 0.01445 -0.01779
0.02147 0.001965 -0.0001539 0.006657 -0.01028 0.01164 0.00353 -0.007027
-0.04144 -0.005962 0.03067 -0.01138 0.00609 -0.03394 -0.015305 0.01053
0.02281 0.00405 0.0087 0.003893 -0.02637 -0.029 -0.01712 -0.0272
-0.02742 0.00647 0.02036 -0.0035 -0.0099 0.01411 0.02328 -0.02058
-0.0059 0.005817 -0.001273 -0.01022 0.00825 0.0007286 -0.0214 -0.0349
-0.002394 -0.00504 0.01756 0.0187 0.01111 -0.005882 0.03574 -0.001908
0.02303 -0.01598 0.01973 0.02231 0.01465 0.013794 0.0162 -0.01602
-0.01558 0.00983 0.013176 -0.001776 -0.02417 0.003756 -0.018 -0.013306
0.004612 -0.00488 -0.012024 0.01031 0.0045 0.02443 0.010025 0.02481
0.004414 0.0051 -0.00477 0.04648 0.013 0.00946 -0.01915 -0.00861
-0.0204 -0.03488 -0.00885 0.0071 -0.00682 0.01413 0.01498 0.005474
0.013664 0.003704 0.01227 -0.03482 -0.013145 -0.01582 -0.005768 0.00192
0.0125 -0.004913 0.01721 0.0307 -0.014694 0.008575 0.02747 -0.00734
-0.007225 -0.0003073 -0.004425 -0.04764 0.01784 -0.02592 0.01182 -0.002384
-0.0099 0.003263 0.00423 0.0141 -0.0095 -0.01045 -0.013 -0.012596
0.00829 -0.00419 0.02159 -0.02498 -0.01236 0.0005283 -0.01999 -0.02562
0.00675 0.02533 0.006542 0.017 0.01747 0.003664 0.001631 0.01441
-0.02028 0.007126 -0.0137 -0.04065 0.0001224 -0.00306 -0.02126 0.02548
-0.01365 -0.012436 -0.01472 0.02051 0.007126 0.0233 0.001417 0.02306
-0.00632 -0.02084 0.0616 -0.00479 -0.01077 0.003878 -0.02765 0.0078
-0.011284 -0.005493 -0.010994 0.03177 -0.01648 0.004726 0.03177 0.004604
-0.003883 -0.01196 -0.01736 -0.01348 0.01037 -0.03668 0.011635 -0.00429
0.01942 -0.006866 0.02654 0.001365 -0.004456 0.01578 0.00782 0.008965
0.02528 -0.03143 0.01486 0.01927 -0.002647 -0.0008926 -0.00684 0.0067
0.0078 -0.001063 0.004745 -0.007328 0.0165 0.004234 -0.01288 0.04974
-0.00641 -0.00684 -0.02724 0.010056 -0.00803 -0.004528 -0.01017 0.02496
-0.000992 -0.02866 0.02034 0.005802 0.03108 0.02304 -0.00946 -0.02975
-0.015045 -0.01369 -0.0149 -0.00391 -0.04147 0.02002 0.01573 -0.0022
0.0283 0.00488 -0.0078 -0.00265 -0.0088 0.02583 -0.01273 0.01625
00000000: 9624 2e21 af1e f1a4 b1a8 30a6 ea20 88a0
00000010: 7926 2e24 2c9f 45a4 8e16 74a2 049b b41c
00000020: dca7 c11e 149d 031d 2121 e814 6623 8ea4
00000030: 7f25 0618 0b89 d11e 43a1 f621 3b1b 329f
00000040: 4ea9 1b9e da27 d4a1 3c1e 58a8 d6a3 6421
00000050: d725 261c 7420 f91b c0a6 6da7 62a4 f7a6
00000060: 05a7 a01e 3625 2b9b 12a1 3923 f625 45a5
00000070: 0b9e f51d 3795 3ca1 3920 f811 7aa5 78a8
00000080: e798 299d 7f24 ca24 b021 069e 9328 d197
00000090: e525 17a4 0d25 b625 8023 1023 2624 1aa4
000000a0: faa3 0821 bf22 4697 30a6 b11b 9ca4 d0a2
000000b0: b91c ff9c 28a2 4721 9c1c 4126 2221 5a26
000000c0: 851c 391d e29c f329 a822 d820 e7a4 69a0
000000d0: 39a5 77a8 88a0 451f fc9e 3c23 ab23 9b1d
000000e0: ff22 961b 4822 75a8 bba2 0da4 e89d dd17
000000f0: 6622 089d 6824 dc27 86a3 6420 0827 849f
00000100: 669f 098d 889c 19aa 9124 a3a6 0d22 e298
00000110: 12a1 af1a 551c 3823 dda0 5aa1 a8a2 73a2
00000120: 3f20 4a9c 8725 65a6 54a2 5410 1ea5 8fa6
00000130: e91e 7c26 b31e 5a24 7924 811b ae16 6123
00000140: 31a5 4c1f 04a3 34a9 0308 449a 71a5 8626
00000150: fda2 5ea2 89a3 4025 4c1f f725 ce15 e725
00000160: 799e 56a5 e32b e89c 84a1 f11b 14a7 fd1f
00000170: c7a1 a09d a1a1 1128 38a4 d71c 1128 b71c
00000180: f49b 20a2 72a4 e7a2 4f21 b2a8 f521 659c
00000190: f924 089f cb26 9715 909c 0a24 0120 9720
000001a0: 7926 06a8 9c23 ef24 6c99 5093 019f dc1e
000001b0: fd1f 5b94 dc1c 819f 3924 561c 98a2 5e2a
000001c0: 909e 019f f9a6 2621 1da0 a39c 35a1 6426
000001d0: 1094 56a7 3525 f11d f527 e625 d8a0 9ea7
000001e0: b4a3 02a3 a1a3 019c 4fa9 2025 0724 8198
000001f0: 3f27 ff1c fd9f 6d99 81a0 9d26 85a2 2924

weight f2 [128, 256]
0.05063 0.03592 -0.02461 0.08405 0.0097 0.0398 0.05127 -0.06232
-0.003628 0.05954 0.006413 0.02986 -0.03403 0.0346 0.05673 -0.02231
0.0598 -0.0674 -0.05417 0.01851 -0.0631 -0.01344 0.03717 0.06647
0.02534 0.06305 -0.004402 -0.01753 -0.057 0.01542 -0.05228 0.06085
0.02058 0.05838 0.03253 -0.02814 -0.09436 0.03372 0.0054 -0.003986
0.05902 -0.002918 0.01039 0.0395 -0.005035 0.03302 -0.00554 0.05048
-0.02122 0.0328 -0.0746 0.035 -0.02965 -0.02293 0.0909 0.09595
0.01845 0.03824 0.03696 0.003906 -0.05258 -0.0704 -0.0387 -0.05106
-0.002531 0.03412 -0.0503 0.06 -0.02547 -0.0537 -0.04425 0.05975
-0.04224 -0.0866 -0.02863 0.05405 0.02385 0.0689 -0.0738 0.05737
0.0543 -0.02138 -0.05246 0.04977 0.00565 0.02046 -0.04153 -0.00767
0.05417 -0.0819 0.01904 -0.01903 -0.02734 -0.02904 0.0822 -0.03506
-0.0654 0.0641 -0.006474 -0.007095 -0.05313 -0.0788 0.04437 0.04706
0.01958 0.0205 -0.01027 -0.0803 -0.03305 0.0402 0.0321 -0.02914
0.01965 0.008865 -0.004105 -0.010475 0.05286 -0.016 -0.06287 -0.0199
0.05682 0.02219 -0.0615 -0.05542 0.0319 0.06555 -0.0695 -0.05698
0.05844 -0.06903 -0.0255 -0.01054 -0.02498 0.0348 0.002596 -0.0171
0.02383 0.002117 -0.0366 -0.061 -0.01878 -0.05576 -0.00038 0.01375
-0.000513 -0.05643 0.0262 0.01964 -0.02133 0.04984 0.0673 0.05807
-0.06183 -0.058 -0.05835 -0.0452 0.07355 0.007072 -0.01619 0.04102
-0.05286 -0.03049 -0.0377 0.04388 -0.0583 -0.06934 0.0947 -0.02051
0.01659 -0.00664 0.08124 -0.0806 -0.04178 0.04602 0.0256 -0.0006313
-0.04514 0.02502 0.0465 -0.03748 -0.01057 0.0326 0.0082 0.03632
-0.002169 0.0278 0.06024 5.6e-05 0.06323 0.02284 -0.00256 -0.03021
0.03198 -0.03143 0.0353 0.04538 0.0816 -0.05954 -0.02406 -0.04007
-0.01271 0.01356 -0.01112 0.007374 -0.023 -0.01929 0.02486 -0.03099
-0.005653 -0.0456 -0.04407 -0.08 0.005203 -0.01383 -0.0254 -0.086
0.03992 -0.0374 0.03528 0.014824 -0.0871 0.02045 0.0409 -0.02765
-0.07837 -0.05142 -0.01688 -0.0339 -0.07385 0.02599 0.02402 -0.02461
0.04898 -0.04486 -0.06775 0.0668 0.05844 -0.0641 -0.02844 0.06793
0.06287 -0.06018 0.009926 0.0684 0.08185 -0.0381 -0.00873 -0.00882
-0.0794 0.02644 -0.00983 0.00988 -0.01753 -0.04828 0.001952 0.00835
00000000: 7b2a 9928 4da6 612d f720 1829 902a faab
00000010: 6e9b 9f2b 911e a527 5ba8 6e28 432b b6a5
00000020: a82b 50ac efaa bd24 0aac e2a2 c228 412c
00000030: 7d26 092c 829c 7da4 4cab e523 b1aa ca2b
00000040: 4525 792b 2a28 34a7 0aae 5128 881d 159c
00000050: 8e2b fa99 5221 0e29 289d 3a28 ac9d 762a
00000060: 6fa5 3328 c6ac 7b28 97a7 dfa5 d12d 242e
00000070: b924 e528 bb28 001c bbaa 81ac f4a8 89aa
00000080: 2f99 5e28 70aa ae2b 85a6 e0aa aaa9 a62b
00000090: 68a9 8bad 54a7 eb2a 1b26 692c b9ac 582b
000000a0: f32a 79a5 b7aa 5f2a c91d 3d25 51a9 db9f
000000b0: ef2a 3ead e024 dfa4 00a7 6fa7 432d 7da8
000000c0: 30ac 1a2c a19e 449f cdaa 0bad ae29 062a
000000d0: 0325 3f25 42a1 24ad 3ba8 2529 1c28 76a7
000000e0: 0825 8a20 349c 5da1 c42a 19a4 06ac 18a5
000000f0: 462b ae25 dfab 18ab 1528 322c 73ac 4bab
00000100: 7b2b 6bac 87a6 65a1 65a6 7428 5119 61a4
00000110: 1a26 5618 afa8 cfab cfa4 23ab 3a8e 0a23
00000120: 3490 39ab b526 0725 76a5 612a 4f2c 6f2b
00000130: eaab 6dab 78ab c9a9 b52c 3e1f 25a4 4029
00000140: c4aa cea7 d3a8 9e29 76ab 70ac 102e 40a5
00000150: 3f24 cd9e 332d 29ad 59a9 e429 8e26 2c91
00000160: c7a9 6826 f429 cca8 69a1 2c28 3320 a628
00000170: 7198 1e27 b62b ac03 0c2c d925 3e99 bca7
00000180: 1828 06a8 8528 cf29 392d 9fab 29a6 21a9
00000190: 82a2 f122 b2a1 8d1f e3a5 f0a4 5d26 efa7
000001a0: ca9d d6a9 a4a9 1fad 541d 15a3 81a6 81ad
000001b0: 1c29 caa8 8428 9723 93ad 3c25 3c29 14a7
000001c0: 04ad 95aa 52a4 57a8 baac a726 2626 4da6
000001d0: 452a bea9 56ac 462c 7b2b 1aac 48a7 592c
000001e0: 062c b4ab 1521 612c 3d2d e0a8 78a0 84a0
000001f0: 15ad c526 08a1 0f21 7da4 2eaa ff17 4620

bias f2 [128]
0.02065 -0.01839 -0.003834 -0.06506 -0.02922 0.00513 0.0327 -0.005375
0.0328 -0.00219 -0.1068 -0.02466 -0.0677 -0.00949 -0.01717 -0.003653
0.010376 0.0782 -0.03668 0.0344 -0.0221 0.03014 0.00548 -0.0729
-0.02496 -0.04263 -0.04202 0.02736 -0.007412 0.01572 -0.07 -0.10315
0.007378 0.03497 0.00671 -0.01761 0.02974 0.01787 0.0541 -0.0956
-0.01459 0.0805 -0.04413 0.03287 0.04834 0.02469 0.0319 -0.04547
-0.02211 0.0435 -0.09247 0.04272 -0.02321 -0.06006 0.01984 -0.001572
-0.02023 -0.01622 0.0222 0.02992 0.001809 0.06866 -0.03995 -0.01264
0.009186 0.00806 0.008995 -0.0684 -0.01608 -0.03876 -0.02846 -0.03912
0.02612 0.0158 0.042 -0.004215 -0.0395 0.03705 0.0008974 0.007774
-0.04602 -0.05396 -0.03824 0.007103 -0.03397 -0.0671 0.01093 -0.0002128
-0.03183 0.03513 -0.0386 -0.03004 0.03934 0.02716 0.0431 -0.00169
0.02713 -0.11304 -0.00877 -0.02129 -0.05533 0.0002004 0.0506 -0.05615
0.03946 0.03552 0.0555 -0.0007596 -0.04065 -0.0531 -0.05618 0.03026
0.03342 0.04266 0.02734 0.04718 -0.07465 0.0003047 0.00945 -0.0989
-0.0422 0.007812 0.02768 -0.0905 0.02197 0.0612 -0.0239 -0.0368
00000000: 4925 b5a4 da9b 2aac 7ba7 411d 3028 819d
00000010: 3328 7c98 d6ae 50a6 55ac dca0 65a4 7b9b
00000020: 5021 012d b2a8 6728 a8a5 b727 9d1d aaac
00000030: 64a6 75a9 61a9 0127 979f 0624 7bac 9aae
00000040: 8e1f 7a28 df1e 82a4 9d27 9324 ed2a 1eae
00000050: 78a3 272d a6a9 3528 302a 5226 1528 d2a9
00000060: a9a5 9129 ebad 7829 f1a5 b0ab 1425 7096
00000070: 2ea5 27a4 af25 a927 6917 652c 1da9 79a2
00000080: b420 2020 9b20 61ac 1ea4 f6a8 49a7 02a9
00000090: b026 0b24 6029 519c 0ea9 be28 5a13 f61f
000000a0: e4a9 e8aa e5a8 461f 59a8 4bac 9921 f98a
000000b0: 13a8 7f28 f1a8 b1a7 0929 f426 8429 ec96
000000c0: f226 3caf 7ea0 73a5 15ab 910a 7a2a 30ab
000000d0: 0d29 8c28 1b2b 3992 34a9 ccaa 31ab bf27
000000e0: 4728 7629 0027 0a2a c7ac fe0c d720 54ae
000000f0: 67a9 0020 1627 cbad a025 d52b 1ea6 b6a8

weight f2 [128]
1.01 0.9756 0.9844 0.9893 0.984 0.9897 1.029 1.011
0.9844 0.9976 0.958 1.026 0.987 1.018 1.015 0.977
0.991 0.9937 0.9863 0.994 1.001 1.001 0.9834 0.9897
0.971 0.99 0.9663 1.003 0.974 0.983 0.9966 0.991
1.011 1.02 1.012 0.983 1.011 0.935 0.994 0.9727
1.022 0.975 0.992 0.981 1.0 0.978 0.945 1.002
1.014 1.013 0.9844 0.9824 0.9995 0.9873 0.9873 1.015
0.959 0.993 0.9854 0.986 0.964 1.0205 0.988 1.014
0.978 1.004 0.971 1.019 0.968 1.017 1.002 1.039
0.9927 1.003 0.976 0.987 0.9863 0.988 0.9844 0.952
1.032 1.018 1.012 0.9907 0.9805 1.027 0.9995 0.9893
1.023 0.987 0.9995 0.9844 1.004 1.009 1.014 1.031
1.011 0.974 1.046 0.976 1.005 0.9946 0.9688 0.995
0.998 0.9814 1.021 1.018 0.9907 1.005 1.007 1.018
0.9683 0.9897 0.9985 1.004 0.9736 1.007 0.9985 0.9995
1.037 0.978 0.9893 0.995 0.989 0.9873 1.009 0.973
00000000: 0a3c ce3b e03b ea3b df3b eb3b 1e3c 0b3c
00000010: e03b fb3b aa3b 1b3c e53b 123c 0f3c d13b
00000020: ee3b f33b e43b f43b 013c 013c de3b eb3b
00000030: c53b ec3b bb3b 033c cb3b dd3b f93b ee3b
00000040: 0b3c 143c 0c3c dd3b 0b3c 7b3b f43b c83b
00000050: 173c cd3b f03b d93b 003c d33b 8f3b 023c
00000060: 0e3c 0d3c e03b dc3b ff3b e63b e63b 0f3c
00000070: ac3b f23b e23b e33b b63b 153c e73b 0e3c
00000080: d33b 043c c53b 133c be3b 113c 023c 283c
00000090: f13b 033c cf3b e53b e43b e73b e03b 9e3b
000000a0: 213c 123c 0c3c ed3b d83b 1c3c ff3b ea3b
000000b0: 183c e53b ff3b e03b 043c 093c 0e3c 203c
000000c0: 0b3c cb3b 2f3c cf3b 053c f53b c03b f63b
000000d0: fc3b da3b 163c 123c ed3b 053c 073c 123c
000000e0: bf3b eb3b fd3b 043c ca3b 073c fd3b ff3b
000000f0: 263c d33b ea3b f63b e93b e63b 093c c93b

bias f2 [128]
-0.003933 -0.01137 0.03836 0.005486 0.01192 -0.01764 -0.00616 0.01732
-0.005512 0.006214 0.007343 0.00768 0.01738 -0.005955 0.00326 0.02242
0.03625 -0.0256 0.000638 0.02916 0.006584 0.02762 -0.014755 -0.004948
0.01985 0.007935 -0.02028 0.001815 -0.01403 -0.0215 0.00499 0.001505
0.03076 0.008 0.00576 0.02719 -0.0383 0.03024 -0.005272 -0.02222
-0.01439 -0.0003474 0.00203 0.004387 0.01683 0.0188 -0.00587 0.004196
0.005558 0.02295 -0.0243 0.04117 0.002365 -0.002668 -0.0159 -0.02357
0.005806 0.02048 -0.005096 0.0207 0.0388 -0.00138 -0.02286 0.00643
0.02719 0.005962 -0.015564 0.02449 0.04657 -0.03064 0.01938 -0.0411
-0.04544 -0.005486 0.02841 0.003296 -0.00842 -0.001415 -0.003578 0.02159
-0.009125 -0.002302 0.00963 -0.01019 0.00488 -0.00967 0.001285 -0.00833
0.01027 0.00435 0.00404 -0.01784 0.00757 0.0008965 0.02983 0.0094
0.00843 0.02177 0.01746 0.001919 -0.01674 0.00408 0.004486 -0.01404
0.0237 0.02269 0.02213 0.01636 -0.02188 -0.000572 0.01481 0.02448
0.01351 0.02206 0.00728 0.013145 0.01918 0.01985 0.02661 -0.02255
0.00684 -0.01488 0.0194 -0.007618 -0.01402 0.0386 -0.0183 -0.0003676
00000000: 079c d2a1 e928 9e1d 1a22 84a4 4f9e 6f24
00000010: a59d 5d1e 851f dd1f 7324 199e ad1a bd25
00000020: a428 8ea6 3a11 7727 be1e 1227 8ea3 119d
00000030: 1525 1020 31a5 6f17 2fa3 81a5 1c1d 2a16
00000040: e027 1920 e61d f626 e7a8 be27 669d b0a5
00000050: 5ea3 b18d 2818 7e1c 4f24 d024 039e 4c1c
00000060: b11d e025 39a6 4529 d818 7799 12a4 09a6
00000070: f21d 3e25 389d 4d25 f728 a795 daa5 961e
00000080: f626 1b1e f8a3 4526 f629 d8a7 f624 43a9
00000090: d1a9 9e9d 4627 c01a 50a0 cc95 549b 8725
000000a0: aca0 b798 ee20 38a1 ff1c f3a0 4315 44a0
000000b0: 4221 741c 231c 91a4 c01f 5813 a327 d020
000000c0: 5120 9325 7824 dc17 49a4 2e1c 981c 30a3
000000d0: 1126 cf25 aa25 3024 9aa5 b090 9523 4426
000000e0: eb22 a625 741f bb22 e924 1525 d026 c6a5
000000f0: 011f 9ea3 f724 cd9f 2ea3 f128 afa4 068e

weight f2 [23, 128]
0.01381 -0.0003963 -0.0783 -0.0816 -0.02206 0.10565 -0.002039 0.02556
-0.00883 0.01578 -0.05185 -0.09674 -0.00615 0.03293 0.1006 0.02103
-0.05875 0.00461 0.02438 -0.0402 -0.07043 -0.02553 -0.04147 0.05408
-0.06616 -0.068 0.0444 0.002728 0.03995 -0.07336 -0.0926 -0.00784
-0.0738 0.00407 -0.0519 0.0188 0.05975 -0.0181 0.01246 0.02548
0.083 -0.02039 0.00573 0.007576 0.0789 0.0735 0.0689 -0.0457
-0.0916 -0.0919 0.1009 -0.0457 -0.03137 -0.0773 0.03854 -0.06137
-0.0489 -0.04248 -0.05386 -0.02637 -0.004627 -0.005775 0.01793 -0.09753
-0.0882 -0.004757 -0.04166 -0.1114 -0.05972 0.0763 -0.02235 -0.0291
0.0819 -0.02245 -0.04602 0.0377 0.0364 -0.0788 0.0091 -0.01932
-0.02487 -0.07904 0.01198 0.04092 -0.05124 0.04355 -0.0164 0.03934
-0.053 0.002611 0.0665 0.02556 -0.09125 0.0249 0.00519 -0.0731
-0.0868 -0.01562 -0.02248 -0.02185 -0.0424 -0.0435 0.0003843 0.0755
0.01023 -0.06046 0.07806 -0.0972 0.07007 -0.03876 0.0498 -0.07623
-0.007023 -0.04413 0.02135 -0.03848 -0.0461 -0.0864 0.0934 0.06934
0.0705 0.06616 -0.03117 0.05472 -0.00816 -0.0928 0.0716 -0.0162
0.05698 0.05658 -0.03099 0.0705 0.0707 -0.006256 0.02397 0.06805
-0.0004737 0.01301 -0.0545 0.04236 0.03986 -0.085 0.04556 -0.05664
-0.09344 -0.02727 -0.03925 0.08105 0.01407 -0.0627 0.0892 -0.001984
-0.0847 -0.02783 -0.06464 -0.01357 -0.02602 0.001159 -0.06775 -0.04956
0.03635 0.11053 0.0264 -0.024 0.0505 0.04684 0.006714 0.0609
0.02075 0.05164 -0.01062 -0.0252 -0.02145 -0.03424 -0.03116 -0.04257
0.03696 -0.0578 -0.02988 -0.09686 -0.02272 0.03336 0.0552 -0.08594
-0.02892 -0.001474 -0.08246 -0.003027 -0.0047 -0.0638 -0.003643 0.0618
-0.04285 0.029 -0.00508 0.04514 0.03403 -0.0675 -0.005806 0.1015
0.04236 -0.07965 -0.06216 -0.05914 -0.02586 0.03108 -0.0761 -0.05453
0.0742 -0.05942 -0.03244 -0.03008 0.0669 -0.12415 -0.04364 -0.01319
0.03333 0.0873 0.04156 0.04614 0.01026 -0.02092 0.02835 0.02943
-0.03714 -0.07117 -0.03047 0.00511 -0.02287 -0.05408 0.01802 0.03204
0.03943 -0.0675 -0.07825 0.08716 0.083 -0.07043 -0.001818 -0.0415
0.01362 -0.05823 0.0579 0.01375 -0.05194 -0.00844 0.06854 0.016
-0.04645 0.02873 -0.0776 -0.002346 0.0638 -0.0621 -0.06165 -0.05945
00000000: 1223 7e8e 03ad 39ad a6a5 c32e 2d98 8b26
00000010: 85a0 0a24 a3aa 31ae 4c9e 3728 702e 6225
00000020: 85ab b81c 3e26 25a9 82ac 89a6 4fa9 ec2a
00000030: 3cac 5aac af29 9619 1d29 b2ac edad 04a0
00000040: b9ac 2b1c a5aa d024 a62b a2a4 6122 8626
00000050: 502d 38a5 de1d c21f 0d2d b42c 692c d9a9
00000060: ddad e2ad 752e d9a9 04a8 f2ac ef28 dbab
00000070: 42aa 70a9 e5aa c0a6 bd9c ea9d 9724 3eae
00000080: a5ad df9c 55a9 21af a5ab e22c b9a5 73a7
00000090: 3e2d bfa5 e4a9 d328 a928 0bad a920 f2a4
000000a0: 5ea6 0fad 2222 3d29 8faa 9329 33a4 0929
000000b0: c9aa 5919 422c 8b26 d7ad 6026 511d aeac
000000c0: 8ead ffa3 c1a5 98a5 6da9 91a9 4c0e d52c
000000d0: 3d21 bdab ff2c 39ae 7c2c f6a8 602a e1ac
000000e0: 319f a6a9 7725 eda8 e7a9 88ad fa2d 702c
000000f0: 832c 3c2c fba7 012b 2ea0 f0ad 952c 26a4
00000100: 4b2b 3e2b efa7 832c 862c 689e 2326 5b2c
00000110: c38f a922 faaa 6c29 1a29 71ad d529 40ab
00000120: fbad fba6 06a9 302d 3423 03ac b52d 1098
00000130: 6cad 20a7 23ac f3a2 a9a6 bf14 56ac 58aa
00000140: a728 132f c226 25a6 772a ff29 e01e cc2b
00000150: 5025 9c2a 70a1 74a6 7ea5 62a8 faa7 73a9
00000160: bb28 66ab a6a7 33ae d1a5 4528 112b 80ad
00000170: 67a7 0a96 47ad 339a d09c 15ac 769b e92b
00000180: 7ca9 6d27 349d c729 5b28 52ac f29d 7f2e
00000190: 6c29 19ad f5ab 92ab 9fa6 f527 dfac fbaa
000001a0: c02c 9bab 27a8 b3a7 482c f2af 96a9 c1a2
000001b0: 4428 962d 5229 e829 4121 5ba5 4227 8927
000001c0: c1a8 8eac cda7 3c1d dba5 ecaa 9d24 1a28
000001d0: 0c29 52ac 02ad 942d 502d 82ac 7297 50a9
000001e0: f922 74ab 692b 0a23 a6aa 52a0 632c 1924
000001f0: f2a9 5b27 f7ac ce98 152c f3ab e4ab 9cab

bias f2 [23]
0.01013 0.01648 0.1069 0.078 -0.0709 -0.01452 -0.00977 0.03494
0.0981 0.0555 -0.005234 -0.05307 0.02457 -0.118 0.001788 0.00916
-0.02087 0.05502 -0.0672 0.06757 -0.05823 0.0613 0.02557
00000000: 3021 3824 d72e fe2c 8aac 6fa3 01a1 7928
00000010: 472e 1b2b 5c9d cbaa 4a26 8daf 5317 b120
00000020: 58a5 0b2b 4dac 532c 74ab d92b 8c26

w0 f2 [4, 62, 128]
-0.0307 -0.0245 0.000399 -0.01576 -0.00665 0.01671 0.01353 -0.02089
-0.03278 -0.00842 -0.02261 0.03537 -0.03363 -0.001101 0.01675 0.005817
-0.02258 -0.03806 0.01668 0.0058 0.003975 -0.006298 -0.010345 0.01866
0.00913 -0.01293 0.003986 -0.00733 0.006916 0.00832 -0.013054 -0.01624
-0.004387 0.0003133 0.01339 0.010735 -0.03143 -0.01247 0.01625 0.02295
-0.02885 -0.01403 -0.00523 -0.0351 -0.003727 0.01654 -0.006447 0.00866
0.02513 0.01953 0.01619 -0.02621 -0.01907 0.02078 -0.03314 -0.0266
-0.001258 0.005733 -0.04813 0.004665 -0.007767 -0.012054 -0.000975 0.02734
0.009056 0.005184 -0.03952 -0.02371 -0.01281 0.004303 -0.0008736 -0.011406
-0.02257 0.0128 -0.02348 -0.00991 0.01553 -0.008835 -0.0194 -0.01449
0.01851 0.0173 -0.000351 -0.02176 0.00106 0.00548 0.0377 0.00344
-0.01027 -0.03342 0.01788 0.03122 -4.67e-05 -0.007385 -0.01802 0.02501
0.02412 -0.00424 0.0004385 0.00944 0.01274 -0.02211 -0.014534 0.00916
0.001552 0.03021 -0.01736 0.002155 0.013855 0.03085 -0.0001615 0.01949
-0.002188 -0.0306 -0.01913 -0.031 -0.011566 -0.00414 -0.03723 0.01677
-0.0468 0.02795 -0.001479 0.01487 0.02533 -0.009735 0.0217 -0.01651
0.0321 0.02243 0.03091 0.03467 -0.01136 0.02324 0.05008 -0.00274
0.0276 -0.02454 -0.00467 0.00165 0.00414 0.01613 -0.0186 -0.00824
0.01298 -0.006966 -0.01913 0.001404 -0.002323 -0.0083 -0.0007186 0.001168
0.01582 -0.00488 0.006546 0.01346 0.00717 0.01904 -0.002125 -0.012726
-0.01375 -0.00992 0.02718 -0.01477 0.01531 0.0352 0.03214 0.00603
0.02434 -0.012184 -0.004436 0.006046 -0.00535 0.0341 0.01175 -0.02512
0.02899 0.002031 -0.001032 0.02998 0.007053 -0.01978 -0.004925 -0.03345
0.00933 0.01794 0.02145 0.04596 0.03537 0.00796 0.0146 -0.002317
-0.00836 0.00887 0.00406 -0.00357 -0.03683 0.01288 0.001492 0.01416
-0.0001978 0.0081 -0.00479 0.03078 0.005005 -0.0364 0.0225 -0.001634
-0.01484 0.004845 -0.001262 0.0408 -0.009834 0.02002 0.004326 -0.00869
0.00351 0.01665 -0.0316 0.012146 0.002369 0.006165 0.00246 0.02414
0.009254 0.005585 -0.009735 -0.00895 0.0419 -0.01159 0.01019 -0.003754
0.01695 0.007713 -0.003304 0.02023 -0.0004346 0.0339 -0.02478 0.02185
0.005215 0.01987 0.02191 -0.03363 0.04346 0.03564 -0.02496 -0.006615
0.02177 0.03436 0.02037 -0.007298 0.0357 -0.02078 0.002787 -0.013374
00000000: dca7 46a6 8a0e 09a4 cf9e 4724 ed22 59a5
00000010: 32a8 50a0 caa5 8728 4ea8 8294 4a24 f51d
00000020: c8a5 dfa8 4524 f01d 121c 739e 4ca1 c724
00000030: ad20 9fa2 151c 829f 151f 4320 afa2 28a4
00000040: 7e9c 220d db22 7f21 06a8 62a2 2924 e025
00000050: 63a7 2fa3 5b9d 7ea8 a29b 3c24 9a9e 6f20
00000060: 6f26 0025 2524 b6a6 e2a4 5225 3ea8 cfa6
00000070: 2795 df1d 29aa c71c f49f 2ca2 fd93 0027
00000080: a320 4f1d 0fa9 12a6 8fa2 681c 2893 d7a1
00000090: c7a5 8e22 03a6 13a1 f423 86a0 f7a4 6ba3
000000a0: bd24 6e24 c08d 92a5 5714 9d1d d328 0c1b
000000b0: 42a1 47a8 9424 fe27 0f83 909f 9da4 6726
000000c0: 2d26 579c 2f0f d520 8622 a9a5 71a3 b120
000000d0: 5b16 bc27 72a4 6a18 1823 e627 4b89 fd24
000000e0: 7b98 d5a7 e6a4 f0a7 eca1 3d9c c4a8 4b24
000000f0: fea9 2827 0f96 9d23 7c26 fca0 8e25 3aa4
00000100: 1c28 be25 ea27 7028 d1a1 f325 692a 9d99
00000110: 1127 48a6 c89c c216 3d1c 2124 c3a4 38a0
00000120: a522 229f e6a4 c015 c298 40a0 e391 c914
00000130: 0d24 ff9c b41e e422 581f e024 5a98 84a2
00000140: 0aa3 14a1 f526 90a3 d723 8128 1d28 2d1e
00000150: 3b26 3da2 8b9c 311e 7a9d 5d28 0422 6ea6
00000160: 6c27 2918 3a94 ad27 391f 10a5 0b9d 48a8
00000170: c720 9824 7e25 e229 8728 1320 7a23 bf98
00000180: 48a0 8b20 281c 509b b7a8 9822 1c16 4023
00000190: 7b8a 2620 e89c e127 201d a9a8 c325 b196
000001a0: 99a3 f61c 2b95 3929 09a1 2025 6e1c 73a0
000001b0: 301b 4324 0ba8 3822 da18 501e 0a19 2e26
000001c0: bd20 b81d fca0 95a0 5d29 efa1 3821 b09b
000001d0: 5724 e61f c49a 2e25 1f8f 5728 58a6 9825
000001e0: 571d 1625 9c25 4ea8 9029 9028 64a6 c69e
000001f0: 9325 6628 3725 799f 9228 52a5 b519 d9a2

b0 f2 [4, 128]
0.0422 0.02403 0.02617 0.04056 0.04758 0.01814 0.02585 -0.00391
-0.007454 0.03558 0.00959 0.003036 -0.005375 0.0211 -0.001034 0.003778
0.00969 -0.00846 0.0379 0.02036 0.0342 0.03546 0.014336 0.003645
0.006332 -0.004047 0.02968 0.015076 0.02226 0.03366 0.03014 0.04715
0.02757 0.035 -0.001829 -0.02434 -0.01303 0.03072 0.033 0.01953
-0.005013 0.008316 0.04163 -0.00486 0.0269 0.05075 0.02043 0.03418
-0.00010514 0.01936 0.01627 -0.00542 0.02878 0.01573 -0.01353 0.00922
0.03937 0.057 -0.00521 0.03522 0.02986 -0.01765 0.00277 0.00913
0.03784 0.033 -0.0264 0.006554 0.01912 0.03029 0.001063 0.001025
0.01938 0.03284 0.01622 0.0266 0.01226 0.0387 0.014946 0.02878
0.0452 -0.01168 0.01797 0.01772 -0.00216 0.00874 0.01805 -0.02557
0.03406 0.00463 0.00402 0.01217 0.02606 0.01802 -0.01017 0.03317
0.0402 0.007374 0.01822 0.010025 0.02847 0.01978 -0.004105 -0.00852
0.01346 0.02145 0.004265 -0.003565 0.01984 0.03436 0.02188 0.02863
0.04794 0.01277 -0.00145 -0.03326 0.02902 0.03857 -0.01646 0.003504
-0.00547 0.02417 0.01464 0.04376 -0.00069 0.03128 0.03955 0.0008492
0.0667 0.005753 0.06506 0.0344 0.0491 0.02254 0.05054 0.010086
0.02974 0.04288 -0.006645 0.01223 0.011955 0.0661 0.03174 0.04868
-0.02448 0.01901 0.02899 0.02773 0.0432 0.03894 0.02806 0.01244
0.02737 0.01678 0.04242 0.011154 0.03017 0.00981 0.04407 0.02776
0.0365 0.01475 0.03925 0.004482 0.008194 0.02303 0.02528 0.02663
0.02405 0.02797 0.03967 0.006973 0.02798 0.0427 0.04538 0.04346
0.0495 0.0447 0.03464 -0.01423 0.04688 0.02315 -0.01148 -0.000262
0.04123 0.0396 0.01596 0.04736 0.04718 -0.004143 0.01509 0.0449
0.02342 0.03122 -0.02176 0.02702 -0.01073 0.02849 0.04993 0.01493
0.05115 0.04984 0.04068 0.0658 0.03406 0.00505 0.04166 0.02275
0.03482 -0.00793 0.02411 0.04123 0.04172 0.02394 0.03854 -0.03004
0.03833 0.04047 -0.02534 0.04257 0.002052 0.01845 0.03152 0.0625
0.0325 -0.007935 0.02113 0.02908 0.03818 0.019 0.00853 -0.001272
0.023 0.02614 0.02567 0.0337 0.02843 0.0388 0.015144 0.06396
0.048 0.03047 0.0468 -0.01912 0.03038 0.05435 -0.001493 0.00788
0.01138 0.04382 0.00201 0.02737 0.04233 -0.00858 0.0364 -0.01069
00000000: 6729 2726 b326 3129 172a a524 9e26 019c
00000010: a29f 8e28 e920 381a 819d 6725 3c94 bd1b
00000020: f620 55a0 da28 3625 6128 8a28 5723 771b
00000030: 7c1e 259c 9927 b823 b325 4f28 b727 092a
00000040: 0f27 7b28 7e97 3ba6 aca2 dd27 3928 0025
00000050: 229d 4220 5429 fa9c e326 7f2a 3b25 6028
00000060: e486 f524 2a24 8d9d 5e27 0724 eda2 b820
00000070: 0a29 4c2b 569d 8228 a527 85a4 ac19 ad20
00000080: d828 3928 c2a6 b61e e524 c127 5b14 3314
00000090: f624 3428 2724 cf26 4722 f428 a723 5e27
000000a0: c929 fba1 9a24 8924 6c98 7a20 9f24 8ca6
000000b0: 5c28 be1c 1e1c 3b22 ac26 9d24 35a1 3f28
000000c0: 2529 8d1f aa24 2221 4a27 1025 349c 5da0
000000d0: e422 7e25 5e1c 4d9b 1425 6628 9a25 5427
000000e0: 232a 8a22 f095 42a8 6e27 f028 37a4 2d1b
000000f0: 9a9d 3026 7f23 9a29 a791 0128 1029 f512
00000100: 452c e41d 2a2c 6728 492a c525 782a 2a21
00000110: 9d27 7d29 ce9e 4322 1f22 3b2c 1028 3b2a
00000120: 44a6 de24 6c27 1927 8829 fc28 2f27 5f22
00000130: 0227 4c24 6e29 b621 b927 0621 a429 1b27
00000140: ac28 8d23 0629 971c 3220 e525 7926 d126
00000150: 2826 2927 1429 241f 2a27 7729 cf29 9029
00000160: 562a b929 6f28 49a3 002a ed25 e1a1 4b8c
00000170: 4729 1229 1624 102a 0a2a 3e9c ba23 bf29
00000180: ff25 fe27 92a5 eb26 7ea1 4b27 642a a523
00000190: 8c2a 612a 3529 362c 5c28 2c1d 5529 d325
000001a0: 7528 0fa0 2c26 4729 5729 2126 ef28 b1a7
000001b0: e828 2e29 7da6 7329 3418 b924 0928 002c
000001c0: 2928 10a0 6925 7227 e328 dd24 5e20 3695
000001d0: e325 b126 9226 5028 4727 f728 c123 182c
000001e0: 252a cd27 fe29 e5a4 c727 f52a 1e96 0920
000001f0: d421 9c29 1e18 0227 6b29 65a0 a928 79a1

w1 f2 [4, 151, 128]
0.00198 -0.002417 -0.01282 -0.00418 0.02858 -0.002222 0.0355 0.0268
0.01587 -0.05862 -0.00952 -0.01155 -0.006844 0.06085 -0.03693 -0.02267
0.001062 -0.00345 0.0176 0.01107 0.007103 -0.03464 0.0002866 0.005276
-0.01978 0.02414 0.04395 -0.02122 0.02763 -0.00224 -0.00723 -0.0003192
-0.001751 -0.02255 -0.002995 -0.009125 0.02063 0.005947 0.00818 -0.03296
0.03162 0.02354 0.001585 0.0248 0.000486 -0.01784 -0.007484 -0.03903
-0.04312 -0.01544 -0.015205 -0.04263 0.01017 0.0193 0.00959 0.00782
0.012886 -0.004208 -0.02812 -0.009155 0.0224 -0.00835 -0.0258 -0.01726
-0.00917 0.02081 -0.0182 -0.02167 0.02264 0.0004535 -0.0345 0.0506
0.0074 -0.04816 0.01181 0.0289 0.02013 0.0189 0.03696 0.012955
-0.05408 0.007473 -0.00931 -0.002872 0.02005 -0.0289 0.00085 0.03397
0.01372 -0.03214 0.00431 -0.03009 0.002604 -0.03992 -0.02379 0.004932
-0.03238 -0.02356 -0.05524 0.0207 -0.02005 -0.011 0.007294 0.01682
-0.02048 0.0232 -0.03693 -0.0007577 -0.02945 0.01949 -0.01768 0.01209
-0.03513 -0.00945 0.0323 -0.03087 0.00983 -0.03192 0.03134 0.016
-0.00629 -0.03265 0.03418 0.00010663 -0.03552 -0.02138 -0.03543 -0.005657
0.0185 0.0451 -0.01645 -0.01634 -0.00868 0.02727 -0.01497 -0.014465
-0.007454 -0.04004 -0.005836 0.02264 -0.01799 -0.001747 -0.01772 0.02673
-0.01953 0.00872 -0.00506 0.01591 0.0449 -0.00859 0.002054 -0.02858
-0.007298 -0.02286 -0.005142 0.02731 -0.01114 -0.02534 -0.0224 -0.005527
-0.01585 0.01584 -0.005566 -0.0321 0.02893 -0.0194 -0.007145 0.0323
-0.0175 -0.01617 -0.001238 -0.003193 0.01464 0.001592 0.02284 -0.009186
-0.02306 -0.002897 0.0009713 -0.03943 -0.00863 0.06256 -0.01121 0.006104
0.00943 -0.006947 0.001957 -0.00497 0.002716 -0.03192 -0.00651 0.007496
-0.01384 -0.0328 0.00692 -0.0083 0.01997 -0.006264 0.01913 -0.01617
0.0257 0.02316 0.01677 -0.0096 -0.002293 -0.012085 0.00859 0.013435
0.006588 -0.015144 -0.02881 -0.01566 0.02602 0.01501 0.00837 0.02426
0.01508 -0.010414 -0.00228 0.01281 -0.01251 0.004543 0.02847 0.009056
-0.01959 0.00865 -0.01087 -0.00882 -0.001872 0.02205 0.01799 -0.000987
-0.0008407 0.02847 0.03084 -0.0394 -0.0008616 -0.05383 0.005165 -0.002363
-0.0097 0.05014 -0.005783 -0.02045 -0.03543 -0.00644 -0.0003085 0.02435
-0.00983 -0.002274 0.000498 -0.001008 -0.00584 -0.0008025 0.02107 0.002182
00000000: 0e18 f398 90a2 489c 5127 8d98 8b28 dc26
00000010: 1024 81ab e0a0 eaa1 029f ca2b baa8 cea5
00000020: 5a14 119b 8124 ab21 461f 6fa8 b20c 671d
00000030: 10a5 2e26 a029 6fa5 1327 9698 679f 3b8d
00000040: 2c97 c6a5 229a aca0 4825 171e 3020 38a8
00000050: 0c28 0726 7e16 5926 f60f 91a4 aa9f ffa8
00000060: 85a9 e8a3 c9a3 75a9 3521 f124 e920 0120
00000070: 9922 4f9c 33a7 b0a0 bc25 46a0 9ba6 6ba4
00000080: b2a0 5425 a9a4 8ca5 cc25 6e0f 6aa8 7a2a
00000090: 941f 2aaa 0c22 6627 2725 d724 bb28 a222
000000a0: ecaa a71f c4a0 e299 2225 66a7 f712 5928
000000b0: 0623 1da8 6a1c b4a7 5519 1ca9 17a6 0d1d
000000c0: 25a8 08a6 12ab 4d25 22a5 a2a1 781f 4e24
000000d0: 3ea5 f025 baa8 3592 8aa7 fd24 87a4 3122
000000e0: 7fa8 d7a0 2228 e7a7 0821 16a8 0328 1924
000000f0: 719e 2ea8 6028 fd06 8ca8 79a5 89a8 cb9d
00000100: bc24 c629 36a4 2fa4 72a0 fb26 aaa3 68a3
00000110: a29f 20a9 fa9d cc25 9ba4 2897 89a4 d826
00000120: 00a5 7720 2e9d 1324 bf29 66a0 3518 51a7
00000130: 799f daa5 449d fe26 b4a1 7da6 bca5 a99d
00000140: 0fa4 0e24 b39d 1ca8 6827 f7a4 519f 2228
00000150: 7ba4 24a4 1295 8a9a 7f23 8516 d925 b4a0
00000160: e7a5 ef99 f513 0ca9 6ba0 012c bda1 401e
00000170: d420 1d9f 0218 179d 9019 16a8 ab9e ad1f
00000180: 16a3 33a8 161f 40a0 1d25 6a9e e624 24a4
00000190: 9426 ee25 4b24 eaa0 b298 30a2 6620 e122
000001a0: bf1e c1a3 60a7 02a4 a926 af23 4920 3626
000001b0: b923 55a1 ab98 8f22 68a2 a71c 4a27 a320
000001c0: 04a5 6e20 91a1 84a0 ab97 a525 9b24 0b94
000001d0: e392 4a27 e527 0ba9 0f93 e4aa 4a1d d798
000001e0: f7a0 6b2a ec9d 3ca5 89a8 989e 0e8d 3c26
000001f0: 08a1 a898 1410 2194 fb9d 9392 6525 7818
